runs/cartpole1.pt (torch, 2673 bytes, 4 tensors)

fc1.weight f4 [10, 4]
000000 e7 b3 5b 3e 5d 1a 0d be bc 94 9b be a7 0b 87 bd
       0.21455346 -0.13779588 -0.30386913 -0.065940194
000010 d4 4d e5 be 37 4b 6d be 42 c0 03 3f c8 c4 00 3d
       -0.4478594 -0.23173223 0.5146524 0.031437665
000020 c2 d4 9b be 25 fd d6 bf f1 56 f6 c0 00 54 89 c0
       -0.3043576 -1.6796004 -7.698113 -4.291504
000030 18 2e dd be 41 2d 9a be 91 be 8a 3e eb c0 8e bd
       -0.4319923 -0.3011265 0.27098516 -0.0697039
000040 14 74 82 bd 91 bf a3 3e 44 f5 a2 3f f6 15 3a bf
       -0.063697964 0.3198209 1.2731099 -0.7268976
000050 40 07 e3 3e 5e c5 88 be 39 b9 a4 be 24 37 5c be
       0.4434147 -0.2671308 -0.32172564 -0.2150541
000060 48 de d9 be 38 bf 80 be ac 61 9d 3f 03 7a ec be
       -0.425524 -0.25145888 1.2295432 -0.46186838
000070 36 eb b8 3e 32 b9 49 3e f2 35 7e 3f 6a 61 3b bf
       0.36116952 0.19699553 0.99301064 -0.7319552
000080 dc 4f d3 be c2 34 f2 3e 9c e4 b8 3f 62 36 9d 3d
       -0.41271865 0.47305876 1.4444766 0.07676388
000090 aa 5e 01 be 59 e2 d7 3e f7 f9 76 3f 00 19 43 bf
       -0.12633768 0.42164877 0.96475166 -0.7621002

fc1.bias f4 [10]
000000 4d 4f 8d be c4 9b 81 40 74 aa 10 be 6f 7b 70 40
       -0.27599564 4.0502644 -0.14127523 3.7575338
000010 e9 a5 72 40 d8 e1 e6 be 06 95 82 40 6a 31 7f 40
       3.7913764 -0.4509418 4.0806913 3.987391
000020 e3 c9 77 40 73 51 88 40
       3.8716972 4.2599425

fc2.weight f4 [2, 10]
000000 f9 42 fc bd 1e 68 2c 40 22 b8 59 c0 f0 6d 29 40
       -0.123174615 2.6938548 -3.4018636 2.647335
000010 31 17 31 40 6f d9 ea bd f8 01 45 40 b2 c4 49 40
       2.7670405 -0.114672534 3.0782452 3.1526303
000020 ce 69 36 40 97 2e 2d 40 5d d0 68 3e 9b 47 3c 40
       2.8502078 2.7059686 0.22735734 2.9418705
000030 48 42 9d c0 92 18 2e 40 ca 1f 26 40 7d eb 4c 3e
       -4.914341 2.7202497 2.5956903 0.20011707
000040 49 03 36 40 64 2e 56 40 65 1a 3a 40 76 fe 2d 40
       2.8439505 3.3465815 2.907861 2.718656

fc2.bias f4 [2]
000000 e5 36 15 40 6b 12 0d 40
       2.3314755 2.2042491
