runs/flappybird1.pt (torch, 377285 bytes, 4 tensors)

fc1.weight f4 [512, 180]
000000 5a b5 14 3c 03 d0 a9 bd 4e 37 17 3d 7d 3b 99 bd
       0.009076441 -0.08291628 0.036917977 -0.074820496
000010 6d d8 b5 bd d2 96 bc bd 29 55 05 bd e7 62 cf bd
       -0.088791706 -0.09208454 -0.03255192 -0.10126286
000020 81 12 65 bd 11 23 18 bc 7c 9a e8 bd 4e 72 69 bb
       -0.05592585 -0.009285704 -0.113575906 -0.003562111
000030 1f 63 d0 bd a9 7a b8 bc 8b 15 ce bd 14 9b 2a bd
       -0.10175156 -0.022519426 -0.10062703 -0.0416518
000040 31 c8 32 3c 80 2a 02 bd cb d5 02 bd 0d 32 72 bd
       0.010911987 -0.031778812 -0.03194217 -0.059129763
000050 fd de 08 be 57 74 93 bd 82 c4 a9 bd c3 29 f2 bd
       -0.13366313 -0.071999244 -0.08289434 -0.11824372
000060 55 24 b6 bc d6 50 56 bd f2 57 a4 bd b9 ee c1 bd
       -0.022234121 -0.052323185 -0.08024587 -0.09469361
000070 76 b1 9c bd 5c c4 dc bd 01 44 c0 bd d6 7a 0f bd
       -0.076510355 -0.1077964 -0.09387971 -0.035029255
000080 12 d1 94 bd ae 96 75 bd 55 c5 71 3a 5e 93 a0 3c
       -0.072664395 -0.059958152 0.0009222825 0.01960152
000090 31 3e 8b bd 32 c1 f6 bd aa 77 4e bc 91 78 90 bd
       -0.067989714 -0.12048568 -0.012601772 -0.07054246
0000a0 97 b3 a8 bd 5f 5e d8 bd bf df 80 bb 84 f0 56 bd
       -0.08237379 -0.10564875 -0.0039329226 -0.052475467
0000b0 c9 55 3c bd 12 52 73 3c 19 9b da bc e5 67 7d bd
       -0.04598025 0.01485111 -0.026685284 -0.06186666
0000c0 74 06 1f 3d 7e 12 8e bd 47 85 af bd 26 e6 16 bd
       0.038824514 -0.06937121 -0.085703425 -0.03684058
0000d0 4d 75 11 bd 04 6a 45 3d b0 be 7d bc 5d bc fb bc
       -0.035512257 0.048196808 -0.015487358 -0.030729467
0000e0 41 48 d6 bc ca 66 ca 3c 29 96 b3 bc 49 d9 8b 3b
       -0.0261575 0.024707217 -0.021922188 0.004267846
0000f0 88 82 30 bc c3 35 ac bd 16 ff ae 3c a9 b9 46 bd
       -0.010773309 -0.08408692 0.021361869 -0.048516903
000100 ec eb e1 ba 8c 14 a5 3d ad 21 2b 3d 3b 11 3a 3c
       -0.0017236448 0.0806056 0.041780163 0.011356647
000110 9b 77 33 bc 1a 9a 91 3d 67 68 27 3d 07 c3 a9 3d
       -0.010953809 0.07109471 0.04087105 0.08289152
000120 1a 1c a9 3d ed 89 b0 3d f5 08 86 3d f3 f8 d7 3d
       0.08257313 0.08620057 0.06544677 0.1054553
000130 71 35 88 3d fc 3c 63 3d 60 af 15 bd 2d 04 91 3d
       0.06650818 0.05547808 -0.036544204 0.070808746
000140 30 2d 93 3d 89 e8 b2 3d 6b d8 f8 3d bc ae 84 3d
       0.07186353 0.08735759 0.121506535 0.064786404
000150 87 cb 97 3d f4 85 1e 3e 1f dd 23 3e 69 ce 3a 3e
       0.07411867 0.15480787 0.1600232 0.18242802
000160 74 12 d7 3d 06 f4 12 3e dd d7 49 3e 0e a9 a8 3d
       0.105015665 0.143509 0.19711252 0.082353696
000170 33 89 b1 3d 2a 3a ff 3d ff 82 1b 3e 26 11 84 3d
       0.08668747 0.12462266 0.1518669 0.06448583
000180 c7 ee be 3d b9 ee 76 3d 10 74 94 3d 25 77 92 3d
       0.09322887 0.060286257 0.072487 0.07151631
000190 9d 49 46 3d 0e b5 24 3c 1e b0 69 3d b2 67 be 3d
       0.048410047 0.010052932 0.057052724 0.09297122
0001a0 1a 08 de 3c 84 8e 6d 3d 13 71 01 bd 7a a5 19 3d
       0.027103473 0.05799724 -0.031601977 0.037511326
0001b0 db 80 9a 3d 74 63 40 3d ff 5e ba bd 04 5e 9f bc
       0.075441085 0.046969846 -0.0910015 -0.01945401
0001c0 a8 e4 55 3d 2b f2 4d bd ff c6 28 bd 89 44 04 3d
       0.052220017 -0.050279777 -0.041205402 0.032291923
0001d0 5f 55 17 bc c4 fd 1c bc 0f ef 86 bd c9 48 26 3c
       -0.009236663 -0.009581987 -0.065885656 0.010149189
0001e0 60 3b ec bc 67 25 9c 3c 65 0b 53 bd 90 87 fb 3c
       -0.028836906 0.019060804 -0.05152454 0.03070429
0001f0 17 0c c0 3d dc 23 e6 3d 81 32 d0 3d ea 47 eb 3d
       0.09377306 0.112373084 0.10165883 0.11488326
000200 b0 ae e7 3d 11 52 1b 3e 00 1e ad 3d bd 34 0a 3e
       0.11312616 0.15168025 0.08452988 0.1349668
000210 5c b0 c7 3d 2f a5 98 3d 2b 84 fd 3d 35 9a 33 3e
       0.09750435 0.07453381 0.12378725 0.17539294
000220 70 1c 2c 3e 72 21 fe 3c 68 eb 3e 3d 8a f9 4e ba
       0.16807723 0.031021807 0.04661122 -0.00078954606
000230 5a 9f cd 3d cc 79 50 3d c6 9b 53 3d 24 17 9b 3d
       0.100401595 0.050897405 0.05166223 0.07572773
000240 5b a5 35 bd 1d 09 f2 bc 9f 97 b1 bc 86 4c 5d bd
       -0.04434715 -0.029545361 -0.021678744 -0.054028057
000250 50 bd a2 bd 19 8c 43 bd d8 5a be bd 39 0b b0 bd
       -0.07946265 -0.04774103 -0.09294671 -0.085958906
000260 3c 84 9a bd 4e f1 a2 3a 52 85 00 bd 98 e3 9b bd
       -0.07544753 0.0012431534 -0.031377144 -0.076117694
000270 76 55 9c bc 65 8c c5 3b fd 10 ab ba 97 cd a1 bd
       -0.01908372 0.006028699 -0.0013051328 -0.07900541
000280 b7 f5 20 3b c9 37 74 bd 96 9c 68 bd d1 0b 61 bd
       0.002456052 -0.059623513 -0.056789957 -0.05494291
000290 68 e2 aa bd 8c 37 96 3c b3 f3 4c bd a6 7d 69 3d
       -0.08343965 0.018337034 -0.050037097 0.057004593
0002a0 60 7f c9 3b 7c 5e 10 3d 94 eb d2 3c 6b 7c 99 bc
       0.0061492175 0.035246357 0.025747098 -0.018736085
0002b0 36 66 61 bd 14 1f ea 3a d7 aa 94 bd b0 2b a3 bd
       -0.055029117 0.0017862045 -0.072591476 -0.07967317
0002c0 cb fe 97 bb e3 1a ca bc 59 0f 0b be be 26 89 bd
       -0.004638528 -0.024671024 -0.13580073 -0.066968426
0002d0 d6 c3 7b 3c a2 af 2a bd d9 2f a5 3c 29 fc 5c bd
       0.015366515 -0.041671403 0.020164417 -0.053951416
0002e0 c0 c0 93 3d fa 03 4c 3c 9c 9e 10 bd 89 7c 2d bd
       0.072144985 0.01245212 -0.03530751 -0.042355094
0002f0 f0 c2 c4 bd 93 76 e0 bd 7c d3 db bd 72 a1 75 bd
       -0.09607494 -0.10960116 -0.10733697 -0.05996842
000300 8b d8 90 bd 57 a4 e2 bd 3b 48 64 bd 79 b0 28 bd
       -0.07072552 -0.110665016 -0.055732947 -0.041183922
000310 a0 6c 42 be a5 7d 0e be d1 37 1d be 3c 95 38 bd
       -0.1898675 -0.13915117 -0.15353324 -0.045064196
000320 03 27 19 bd ed 10 af bd a2 6c 0c bd 1d 08 ee 3c
       -0.03739072 -0.0854815 -0.034283288 0.029056603
000330 a3 68 94 3d 6d 05 cf 3d 82 4c a3 3d 38 42 8f bd
       0.0724652 0.10108457 0.07973577 -0.06995052
000340 e6 65 2d bd d1 6a 4d 3c 71 2a c0 bd 9c b0 99 bb
       -0.042333506 0.012537674 -0.09383095 -0.004690243
000350 da e3 70 bd ae 3d 5b 3b 83 a8 49 3c 58 3a 91 bd
       -0.058811046 0.0033453512 0.012308243 -0.07091206
000360 55 83 5a bd 41 5a c9 bc 62 a4 a3 bd 9f a5 2a 3d
       -0.053347904 -0.02457917 -0.07990338 0.041661855
000370 78 ba 68 3c 8d 87 97 bc 14 fd ee 3c df 71 d4 bd
       0.014204614 -0.018497253 0.029173411 -0.10373282
000380 0b cb 8b bd 78 1e ef 3c 44 03 9b bc e7 30 dd 3b
       -0.06825837 0.029189333 -0.018922456 0.0067502144
000390 9a 9c f3 bd 24 ad d0 bd eb 08 59 bd ff ff 15 be
       -0.11895104 -0.10189274 -0.05298702 -0.14648436
0003a0 e3 45 a5 bd b2 f1 3b be 21 ae 00 be 10 bc 5b bd
       -0.080699705 -0.18353918 -0.12566425 -0.053646147
0003b0 74 94 13 be bb a2 8e bc 4c e7 47 bd 52 c4 7b 3b
       -0.14412099 -0.01741158 -0.048804566 0.0038416577
0003c0 68 10 8b bd e3 d9 99 bc 4c a5 a4 3d 46 c3 ab 3d
       -0.067902386 -0.018780654 0.080393404 0.08386855
0003d0 02 b3 b3 3c 41 0d fb 3c 2f 8c a4 bb a4 8f 40 3d
       0.021935944 0.030645968 -0.005021594 0.047011986
0003e0 12 e8 81 3d 51 b1 c7 3b ea 9c de 3d cf 0e 8a 3d
       0.06343092 0.006094136 0.10869773 0.06741106
0003f0 23 4d c6 3d 84 8c ee 3d 40 f8 36 3d 36 db 61 3d
       0.096826814 0.11647895 0.044670343 0.055140696

fc1.bias f4 [512]
000000 9a 62 3f be 21 59 c9 bc 34 42 2f be a6 16 91 3d
       -0.18689957 -0.024578633 -0.17115098 0.07084398
000010 ed 4f bf 3d f0 a0 87 bd 43 63 ff 3d d7 fd af bd
       0.093414165 -0.06622493 0.124701045 -0.08593338
000020 67 88 34 be e1 43 ee bd f7 5f 85 3c db 67 48 bc
       -0.17630158 -0.116340406 0.016281111 -0.012231792
000030 bb b3 41 3d 8d ac 12 bd 4c 91 e1 bd 3b 4e aa 3c
       0.047290545 -0.03580909 -0.11014041 0.020789256
000040 c3 a6 d5 bd ee f0 c8 bd ac c2 2d be f6 b6 2f 3e
       -0.10432198 -0.09811579 -0.16968793 0.17159638
000050 96 53 6d bd cb 8c 56 be f7 93 06 be 88 79 03 be
       -0.057941042 -0.20952146 -0.13142382 -0.12839329
000060 86 91 d8 3c 1e ff 01 be a3 20 59 3c 43 d5 2c 3e
       0.026436578 -0.12694976 0.01325241 0.16878228
000070 e3 ca 3a 3d 05 52 73 bd 1e 92 31 3e ba c6 7d be
       0.045603644 -0.05940439 0.17340896 -0.2478284
000080 41 bd 06 3e 2d 84 16 be da 05 bc bc b5 a1 fc bc
       0.13158132 -0.14698859 -0.022952009 -0.030838827
000090 c3 8f 9e 3d 71 48 a1 3c 1a 64 da 3c df aa 5c bc
       0.07742264 0.019687863 0.02665906 -0.013468473
0000a0 fa 13 f2 bd 71 54 6a 3d 64 f1 a8 3d a3 9a 48 be
       -0.118202165 0.057209436 0.082491666 -0.19590239
0000b0 28 83 b8 bc 37 be 1b be e4 01 bf bd 88 28 3c 3d
       -0.022523478 -0.1520928 -0.093265325 0.04593709
0000c0 df ca d2 3d bb 09 c9 3c a0 dd 87 be 31 17 b1 bc
       0.10292601 0.024540773 -0.26536274 -0.021617504
0000d0 ac 95 71 3d 95 ce 4c 3e 7c 33 a8 bc 17 d2 09 be
       0.05898063 0.2000068 -0.020532362 -0.13459049
0000e0 83 fe 5d be 63 37 dc bc c3 83 07 bd 0e 92 ef 3d
       -0.2167912 -0.02688188 -0.033084642 0.116977796
0000f0 62 d3 09 3e ba bb c2 bd 42 f7 aa bc 12 ba cd 3d
       0.13459542 -0.09508462 -0.020869855 0.10045256
000100 40 a8 18 bc 9d 98 71 3d ef a0 e4 bc ff c8 28 3e
       -0.009317458 0.058983434 -0.02790877 0.16482924
000110 a7 20 2a 3d 12 04 ae 3d 8b c1 ab 3d 27 96 fe 3d
       0.041535046 0.0849687 0.08386525 0.12430983
000120 74 4f 2f bd 77 14 26 3d c9 2f 0c be 12 1b 05 3d
       -0.04280038 0.04054686 -0.13690104 0.03249652
000130 8a 3e 27 be 11 4c 7e 3c 03 a6 00 be 8b d0 87 3c
       -0.1633245 0.015521065 -0.12563328 0.016578933
000140 46 7f c5 3d e7 a4 8b 3c 0a 7f 00 3e 0b 1e 2c bd
       0.09643416 0.017046405 0.12548462 -0.04202084
000150 ee 06 73 3d 6d 17 b3 3b 0f 67 6c 3c 0e f3 2c be
       0.05933278 0.005465439 0.014428868 -0.16889593
000160 7f 6c 8a 3d a6 f8 19 3d cf 87 10 3e b7 1d 52 bd
       0.06758975 0.037590645 0.14114307 -0.05129787
000170 2c 33 0f 3e 38 5b 81 be d8 26 48 be 6e 6c 66 3d
       0.13984364 -0.25264907 -0.19546068 0.05625575
000180 e7 9e 23 be 39 9d 28 be 71 41 9b bd 67 65 ec 3c
       -0.15978585 -0.16466226 -0.07580841 0.028856946
000190 79 36 63 be df 6d bd bd 8c 9c f5 3c fd 25 a2 ba
       -0.22188748 -0.09249472 0.029981874 -0.001237094
0001a0 c0 e4 cf 3c ea 41 96 bc a1 93 fc 3d 8f 74 bc 3c
       0.025377631 -0.018341977 0.123328455 0.023004798
0001b0 f3 6e 2d bd 74 99 2b be 4b 36 3f be ef 57 0e bd
       -0.042342138 -0.16757756 -0.18673055 -0.03475183
0001c0 ea 1d d7 bd 13 8d 93 bd 4d 93 77 3d e9 26 d9 bc
       -0.105037525 -0.07204642 0.06044321 -0.026507812
0001d0 d4 cb 6b bd 9e 6a e8 3c 74 46 5d 3d d6 12 f0 bd
       -0.057567433 0.028371152 0.054022267 -0.11722343
0001e0 25 72 b7 bd 18 1a 80 3d 59 d4 e4 3d b9 75 ec bd
       -0.08957318 0.06254977 0.111733146 -0.11545891
0001f0 f5 5a 80 bd 6f ad 2f 3e a0 3e a3 bd 77 67 63 bb
       -0.06267349 0.17156003 -0.07970929 -0.003469912
000200 39 50 37 3d 8a 8a 3f bc b1 f3 04 3e ea ad 12 be
       0.04475424 -0.011690745 0.12983586 -0.14324155
000210 00 35 bc 3d d5 44 69 bd 67 d7 a7 bd 36 d6 4e bd
       0.091897964 -0.05695041 -0.081953816 -0.050497256
000220 49 bd 04 bd c6 b6 d6 3d 86 e5 ed 3d 01 ff a9 3d
       -0.03240708 0.1048408 0.11616044 0.08300591
000230 b1 52 87 3b 46 87 90 3e 82 33 11 be d8 eb 23 3e
       0.0041297306 0.28228205 -0.14179805 0.16007936
000240 9b ac f6 bb 63 47 24 3c 81 6a b5 bc 9e e8 08 bd
       -0.0075279004 0.010026786 -0.022145512 -0.033424966
000250 f8 c9 8e bd ae f8 14 be 10 56 e1 3d e1 6a 51 be
       -0.06972116 -0.14547989 0.11002743 -0.20450927
000260 b8 f7 d0 bd 82 6c f8 bd 5f d4 0e be 23 de 1c be
       -0.102034986 -0.12130071 -0.139482 -0.15319113
000270 94 f5 a7 bd 7e d9 9d bc fc d1 cb bd 73 23 93 3d
       -0.08201137 -0.019268747 -0.09952161 0.07184496
000280 06 21 af bc fc d7 83 3c b1 c2 11 3e 9f d0 21 3d
       -0.021378051 0.0160942 0.14234425 0.039505597
000290 43 83 e1 3c e0 24 b1 bd 99 81 6c 3c 97 d7 28 3d
       0.02752841 -0.086496115 0.014435195 0.041221227
0002a0 e6 ea 13 3e 76 d4 85 bd 27 ae e5 bc a1 fa 0a 3e
       0.14445075 -0.06534664 -0.028037144 0.1357217
0002b0 81 15 f8 bd e4 df 3b bd 6c 39 1d 3e c1 c1 ad bb
       -0.121134765 -0.045867816 0.15353936 -0.0053026383
0002c0 65 97 3e 3e e0 c2 89 3d 1a e7 f8 3d 43 25 ec 3d
       0.1861244 0.067266226 0.12153454 0.115305446
0002d0 f7 01 09 3d 0f 86 35 bd db ff a3 3d 39 88 2a bd
       0.03344914 -0.0443173 0.08007785 -0.04163382
0002e0 33 47 72 3b 11 ad f0 3c e8 c4 88 bb dc 42 a9 bb
       0.0036968708 0.0293794 -0.0041738637 -0.005165441
0002f0 e6 79 5b be 8b c6 d3 3d d1 36 95 3d cf 27 11 bd
       -0.2143322 0.103406034 0.07285846 -0.035438355
000300 ab 4f 96 bd f9 76 36 bd a4 51 30 3d e2 cd 13 bd
       -0.07339414 -0.044547055 0.04304661 -0.036085017
000310 07 5d 60 3d cc 49 95 bc 8f b3 2c be 55 1b e2 3d
       0.054776218 -0.018223666 -0.16865371 0.110403694
000320 be 21 21 be a4 02 0c 3c 83 7c dd bc f5 00 d8 bc
       -0.15735528 0.008545551 -0.02703691 -0.026367644
000330 76 dd cf bd 66 5c be bd a4 96 bd bc 50 f2 c7 bd
       -0.10149662 -0.09294967 -0.02314312 -0.09763014
000340 f3 59 b1 bd 9c 4d 5b bd 42 7c 1a be 97 65 a2 bc
       -0.086597346 -0.05354081 -0.15086463 -0.019823832
000350 b8 75 1c be 82 2f 62 bd 9e 35 7c bc f0 96 be bd
       -0.15279281 -0.05522109 -0.015393643 -0.09306133
000360 61 d6 ea bd bf 53 9b 3d ca 2e 95 3d c1 6f 0f bc
       -0.11466671 0.07584333 0.07284315 -0.008754672
000370 28 2a 3e bd 3c 3b 38 bc a7 a3 6c 3d f2 b8 3d be
       -0.046426922 -0.011244591 0.05777326 -0.18527582
000380 30 c8 31 3e 34 29 85 bd 9d 59 f8 bd b6 a2 84 3e
       0.17361522 -0.065019995 -0.121264674 0.2590539
000390 7a 13 2c be cc de b3 ba a2 a6 c1 bd da 7d fb bb
       -0.16804305 -0.0013723015 -0.09455611 -0.007674915
0003a0 f1 62 f2 bc 49 ac ae bc 5f 6d 0d 3e 63 c0 07 3e
       -0.029588195 -0.021322386 0.13811253 0.13256983
0003b0 91 7b 9c bc 62 bd c5 bd e1 ee 37 bc e4 80 c1 3b
       -0.01910189 -0.096552625 -0.011226387 0.0059052575
0003c0 b0 c8 69 be 85 99 34 3c 39 6c 0f be 47 41 7f bd
       -0.22830462 0.01102293 -0.14006127 -0.062318113
0003d0 8c d2 31 be 02 f5 31 3e 50 77 29 bd 08 3e da bd
       -0.17365474 0.1737862 -0.04137355 -0.10656363
0003e0 6d 2f 9f 3b 28 85 84 bd 77 cd 12 be 70 cb 67 3d
       0.0048579485 -0.0647071 -0.14336191 0.056590497
0003f0 51 42 b4 3d df ea e7 bd 5b 58 f9 bc 98 79 ee bd
       0.08801711 -0.11324095 -0.030437639 -0.11644286

fc2.weight f4 [2, 512]
000000 66 df e4 3d 70 43 74 be 94 e1 9c b8 11 4a 9e 3e
       0.11175422 -0.2385385 -7.480677e-05 0.30915883
000010 3e 8e 37 be 39 18 c3 3b d4 00 d3 be 31 03 29 bf
       -0.17925355 0.0059538153 -0.4121157 -0.66020495
000020 d5 08 54 3b 3c 9e 2c 3b 32 1b 9a 3c f5 0c bc bd
       0.0032353897 0.0026339432 0.018811796 -0.09182159
000030 d4 1b ac be 28 b3 36 be 24 21 de 3d 16 9a 00 3e
       -0.3361498 -0.1784178 0.10846165 0.12558779
000040 3e db 0d 38 b1 12 09 be 84 dc fd 3c 63 ab bb 3b
       3.3821205e-05 -0.13386036 0.03098894 0.005727218
000050 89 71 65 bd 77 aa fb 3c 08 7b 06 bd 73 fc 5b 3c
       -0.05601648 0.030720932 -0.032832175 0.013426888
000060 c4 d5 48 3e 6a c9 66 3b 88 51 ab 3d 83 d4 de bd
       0.19612795 0.0035215267 0.0836516 -0.10880377
000070 d5 eb 77 be 34 30 e2 be 73 bc c7 3e 12 65 d0 b9
       -0.24211057 -0.441774 0.39010963 -0.00039748155
000080 5b a0 31 be 2f 59 74 3c d0 53 9f bc f4 43 4c be
       -0.17346327 0.014913841 -0.019449145 -0.19947797
000090 14 88 1e 3c 61 85 0f be 4b 67 8c be 5a 13 46 3b
       0.009675998 -0.14015724 -0.27422556 0.0030223937
0000a0 7c 61 87 3e 58 57 af be e4 ef cd bc 10 8b 97 3b
       0.26441562 -0.34246325 -0.025138803 0.004624732
0000b0 65 26 42 bd 21 fb fb bb 6d 50 23 bb ad 07 9e bd
       -0.047399897 -0.007689849 -0.0024919764 -0.07716308
0000c0 54 bf 69 b8 94 99 b9 be 01 17 7b be 76 fe 0f 3e
       -5.5729717e-05 -0.36249983 -0.24520494 0.14061913
0000d0 1f b2 f1 3b 1a f8 b8 bd cd ff b5 3d 33 f7 af 3c
       0.00737597 -0.090316966 0.08886681 0.021480178
0000e0 69 ba b1 3d 23 84 3b 3e 37 17 4d 3d e3 e9 5c 3b
       0.08678133 0.18312125 0.050070968 0.0033708743
0000f0 51 96 a4 bd 5c 85 2b 3b ba b8 91 bb 8d e8 9d 3e
       -0.08036483 0.0026172018 -0.00444707 0.30841485
000100 d6 16 23 3c 94 09 15 bd f6 fe 1d 3e d5 f4 25 3d
       0.009954175 -0.036386088 0.15429291 0.040516693
000110 f3 2b 1b bd d8 c7 2d be 92 17 01 3e c1 b3 97 3c
       -0.03788371 -0.16970766 0.12606648 0.01851833
000120 41 d3 a6 bc 06 63 85 3e cd 24 18 3e e0 e4 0e bc
       -0.020364406 0.2605211 0.14857788 -0.00872156
000130 3f 50 33 bb b8 61 4d be 07 c5 ae bb 7f e6 af bd
       -0.0027361063 -0.20056808 -0.005333546 -0.085888855
000140 22 8c 09 bf 00 cc 88 be c1 51 91 be 73 34 dc 3c
       -0.5372945 -0.2671814 -0.28382686 0.026880478
000150 51 df b1 3e 9a ab 46 bf e0 f2 5f 3d 92 d7 eb be
       0.3474069 -0.77605593 0.054674983 -0.46062905
000160 6e 57 16 be 46 1c cb 3b c0 cf 94 be d4 25 06 3c
       -0.1468179 0.006198439 -0.2906475 0.00818773
000170 4a 9c 0f 3b aa 4b c7 3b 30 d8 a4 3b d5 fc 34 be
       0.0021913224 0.006082018 0.0050306544 -0.17674573
000180 8b 7b 3e bd 7a 5e ac ba 8e 74 e7 3c e5 9d b0 3d
       -0.04650454 -0.0013150715 0.02825382 0.08623866
000190 09 4b ee 3b 30 20 83 bd ed eb 5a bd 9c d0 97 bb
       0.0072721285 -0.06402624 -0.053447653 -0.0046330225
0001a0 15 90 fb 3c 66 15 a5 3d 33 fc 9b bd b5 0a 34 be
       0.030708352 0.08060722 -0.076164626 -0.1758221
0001b0 08 ee e5 3b c1 5f 01 bb 84 a8 3b 3c 20 14 5a 3d
       0.007016901 -0.0019740912 0.0114537515 0.05324185
0001c0 68 c8 0b 3e fc 35 47 3e 78 ce 85 be 46 ea 99 3e
       0.13650668 0.19454187 -0.26134086 0.3006155
0001d0 e4 2b b8 b9 a7 b6 a3 3c df f4 f3 be 4a b1 e1 3d
       -0.00035127916 0.019984556 -0.4764776 0.11020143
0001e0 8b 80 e6 bd 7e e7 de bc 8d f5 00 bd 0a 01 92 3d
       -0.112549864 -0.027209993 -0.031484175 0.071291044
0001f0 2c 65 85 3d 0b e3 c7 be 30 02 ab 3e cf 96 ea b9
       0.06513438 -0.39040408 0.33400106 -0.0004474432
000200 de 2c db 3b 78 3e aa be b2 49 9e be 73 4b 08 3c
       0.006688698 -0.33250785 -0.309156 0.00831877
000210 68 99 cb 3e 76 79 8e 3c 4f 93 8d 3d cc 0c 02 bc
       0.39765477 0.017391901 0.069128625 -0.007937621
000220 f7 72 23 3b 06 a5 0f 3c 16 5e c5 3b b2 ca 2a bc
       0.002494035 0.008767372 0.006023179 -0.010424303
000230 4d d2 4d 3c 7a 94 05 be 01 5e 3d bb c9 ac 30 3b
       0.012562347 -0.1304492 -0.0028895142 0.0026958457
000240 c8 88 a7 3c b6 3a f3 bd f6 2c 11 be 14 30 72 bd
       0.020450965 -0.118764326 -0.14177307 -0.059127882
000250 d8 8f 5a be ee 23 82 3d 1d 29 b2 bc c1 ba f4 3c
       -0.21343935 0.06354509 -0.02174812 0.029874207
000260 45 8c 44 3d 55 c6 e6 be 11 e2 42 3c 4a a5 b8 bd
       0.047985334 -0.4507319 0.011894719 -0.090159014
000270 8a 5d d8 bb 28 c8 52 be e7 f1 1c be be de 68 3e
       -0.0066029476 -0.20584166 -0.15326653 0.2274122
000280 a4 85 0a 3c a3 25 ee 3c 57 d7 c2 be 6d 50 33 be
       0.008454714 0.029070681 -0.38054916 -0.17511149
000290 e8 32 a2 3e 89 86 33 bd 06 94 18 be 39 ab da bd
       0.31679463 -0.043829475 -0.14900216 -0.106771894
0002a0 db 65 12 ba 96 50 b6 3b d8 8c 9e 3d 19 5f fd bd
       -0.00055846357 0.005563806 0.077417076 -0.12371654
0002b0 dd 60 83 3c 18 d0 86 3a 22 eb 85 be 10 cc 87 3e
       0.016037399 0.0010285405 -0.26155955 0.26522875
0002c0 e7 58 b1 3e db fc 1c be 51 a8 73 be b3 4d 79 3e
       0.3463814 -0.15330832 -0.23794676 0.24346046
0002d0 79 3f 32 bf dc 51 8f 3d 0f cc dc bc d3 fd 00 3e
       -0.696281 0.06998035 -0.026952771 0.12596826
0002e0 0a 86 b9 bd a0 3e ab 3d 4d 51 9a 3a 2c 8b 69 be
       -0.09058769 0.08361554 0.0011773497 -0.22806996
0002f0 19 51 6d 3d 59 5c 4b 3c cd 5a 65 bb 64 75 67 3d
       0.05793867 0.012412154 -0.0034996748 0.056508437
000300 56 10 f2 bc 27 5c 11 3d 61 d4 3b be 02 ff 96 3e
       -0.029548805 0.035488274 -0.18342735 0.2949143
000310 63 a6 18 be e3 04 fa bc 3f 2c 2f 3d 96 01 96 3c
       -0.14907221 -0.030519908 0.042766806 0.018311303
000320 82 e3 c6 3d 25 05 fd 3b 41 b9 bc 3c 8d df 9a be
       0.097113624 0.0077215605 0.023037555 -0.3024868
000330 1a 06 1b be 94 fe af 3a 8a 4b bc 3c 9b 79 1f 3b
       -0.15139046 0.0013427311 0.022985239 0.0024333957
000340 18 b8 01 3d be bc 63 3d 12 7d 38 3d 48 e3 0f be
       0.031669706 0.05559992 0.04504115 -0.14051545
000350 e1 4a 07 3d 6a e6 59 bc e6 6a 00 3c 82 50 2d 3d
       0.033030394 -0.013299564 0.007837987 0.042313106
000360 22 96 a8 3a 87 c8 08 bf 70 be 75 3d 40 28 60 be
       0.0012862126 -0.5343098 0.05999607 -0.21890354
000370 59 38 13 bb a3 62 ae 3e 2a 26 12 be 17 1e 80 39
       -0.0022464006 0.3405963 -0.14272371 0.0002443648
000380 89 18 31 be 82 fe 4b bc 15 ba 4f 3e 9c a4 f1 bd
       -0.17294516 -0.012450816 0.20285828 -0.11798975
000390 7f 6e e6 bc 1c d2 6b be 5f 7f b7 3c 1d bd 54 3b
       -0.02812886 -0.23029369 0.022399602 0.0032461353
0003a0 77 5b 8c 3d a3 37 1f bd 69 3e 34 bd b9 39 1b 3b
       0.06853383 -0.03887142 -0.04400483 0.0023685528
0003b0 8a f8 09 bb 30 08 3b bf e3 49 44 3c f3 59 16 bd
       -0.0021052682 -0.7305937 0.011980507 -0.036706876
0003c0 0c a8 25 3a bc 5f eb bc 52 71 37 3b e1 a3 07 bc
       0.00063192914 -0.028732173 0.0027991128 -0.008278818
0003d0 ee 90 6d bd d4 bf 86 3e ae 99 34 be 39 4d e8 ba
       -0.057999544 0.26318228 -0.17636749 -0.001772321
0003e0 96 e4 31 3c f7 8a 4b be 05 a4 02 3d 64 64 1d be
       0.010857722 -0.1987723 0.031894702 -0.15370327
0003f0 49 c5 af 3e 09 af f1 3c c7 ae aa 3b be 4f 27 3d
       0.34330204 0.029502409 0.0052088234 0.040847532

fc2.bias f4 [2]
000000 ba 9e 21 bd a0 6c 10 be
       -0.039458014 -0.14103937
