runs/flappybird1.pt (torch, 377285 bytes, 4 tensors)

fc1.weight f4 [512, 180]
000000 4e d3 a4 3d 65 f6 95 3d fc ea 98 3d 1a af 83 3d
       0.08048116 0.07322387 0.07466695 0.06429882
000010 46 50 42 3d 60 78 41 3d 40 9f 46 3d d2 20 92 3d
       0.047439836 0.04723394 0.048491716 0.07135166
000020 9c 5a 09 3e 6f 43 46 3a ca a1 df 3d cf 06 f1 bb
       0.13413471 0.0007563149 0.10919531 -0.007355548
000030 68 f8 4f 3d 40 c4 be 3d ed 79 9b 3d 7c af 86 bc
       0.050774008 0.093147755 0.07591615 -0.0164411
000040 c4 fb bd 3d 3f 7c 76 3d 32 4a e2 3c 85 7b 43 bb
       0.09276536 0.060177084 0.02762327 -0.0029828262
000050 68 98 a2 3d a3 38 b7 bb 47 31 ec 3c af d5 bb 3d
       0.079392254 -0.0055914684 0.028832091 0.09171616
000060 fc c0 9b 3c 8f 21 12 3c 48 22 de 3d a2 96 4b 3c
       0.01901292 0.008919134 0.108463824 0.01242605
000070 53 48 e3 3c e1 3c 6f bb 17 b2 c4 3b a6 b2 c9 3c
       0.027744448 -0.0036504793 0.0060026753 0.024621319
000080 62 81 76 3d 3e 6d de 3c 94 e3 2c 3b 97 b5 f8 3b
       0.060181983 0.0271517 0.0026380764 0.0075900066
000090 3f ca b4 3d 8f 95 9e bc e1 dc 77 3c 92 2f 8b bc
       0.08827638 -0.019358424 0.015128345 -0.016990457
0000a0 fb 08 46 3d 99 21 19 3e 5f 88 81 3d 35 24 1a 3e
       0.04834841 0.14954223 0.06324839 0.15052874
0000b0 fd b3 0c 3e 67 85 48 3e e0 87 6d 3e bf 42 9f 3e
       0.13740535 0.19582139 0.23196363 0.3110561
0000c0 4b 96 78 3e cd 54 20 3e 85 22 a8 3d 96 c0 10 3e
       0.24276082 0.15657349 0.08209709 0.14135966
0000d0 13 51 08 3e fb 24 ad 3d 6d 76 cb 3c 0b 68 14 3c
       0.13312177 0.08454319 0.024836743 0.009058009
0000e0 d9 32 00 bd 42 b1 b0 3d 61 a6 12 3d 19 72 17 3d
       -0.031298492 0.08627559 0.035803203 0.036974046
0000f0 d0 07 7f 3d f9 34 ba ba 12 a4 80 bd f7 10 f3 bc
       0.06226331 -0.0014206461 -0.06281294 -0.029671175
000100 d7 7c 10 bd 21 a3 52 bd 6a 20 43 bd c2 0f a5 bd
       -0.035275307 -0.051425103 -0.047638334 -0.08059646
000110 91 b3 f6 bd 6c 4e 8f bd 3e fa 2d bd f2 3d 1e bc
       -0.12045968 -0.0699738 -0.042474978 -0.009658324
000120 c2 8b 96 bd e0 7f 33 bd ef 82 77 bd 70 13 5c bd
       -0.073508754 -0.043823123 -0.060427602 -0.053729475
000130 88 26 c7 bd 73 58 84 bd 3d 3a 02 3d a2 d4 96 bd
       -0.09724146 -0.06462183 0.03179382 -0.07364775
000140 04 8e 13 bd fb fc 85 bd 9a 9e 4a bd f3 be 57 3d
       -0.03602411 -0.06542393 -0.04946766 0.052672338
000150 f7 08 c7 bb bf a2 42 3d b4 6d 3c bd 80 00 30 3d
       -0.0060740667 0.047518488 -0.04600306 0.042969227
000160 18 cd 91 bc 59 a4 d2 bc 3b e4 4e 3d ea 09 43 3d
       -0.017797992 -0.025713133 0.050510626 0.047616877
000170 a2 1c 69 bd 84 f9 69 bd 8f fa a3 bc 54 46 b1 bd
       -0.056912072 -0.057122722 -0.020016937 -0.08655992
000180 10 87 c9 38 f3 ee 11 3d b4 74 26 bc 1d 1f ae bc
       9.609584e-05 0.03562827 -0.01015966 -0.02125507
000190 25 97 eb bc b5 12 b2 3c c9 db 20 bd 8e 2b 03 bd
       -0.028758595 0.021737436 -0.039272103 -0.03202396
0001a0 9a dd 8f ba cf 57 bf bd d2 93 25 3c 2e 7c 76 bd
       -0.0010976077 -0.0934292 0.010106044 -0.06017702
0001b0 1d 72 40 bd 89 29 62 bd c1 d2 9c bd 64 85 8d bd
       -0.046983827 -0.055215392 -0.076573856 -0.06910208
0001c0 57 0a dd bd e6 28 f1 bd bf 06 fa bd d8 91 1b bc
       -0.10792988 -0.11775379 -0.12208318 -0.009495221
0001d0 1f 7b 31 bd 03 2f 55 bc d2 8f d4 bc 91 b9 4a 3c
       -0.043330308 -0.013011697 -0.025947485 0.012373344
0001e0 55 e0 cd bb f8 81 80 bd aa 54 38 3b 91 02 db bb
       -0.006282846 -0.062747896 0.0028126636 -0.0066836555
0001f0 ab 9e 41 3d 03 1d 3f 3d 9e 7c 26 bd 1b 0c 67 bc
       0.04727046 0.046658527 -0.040646188 -0.014102007
000200 76 88 9e 3d 9a 2f 11 bd 9d 85 18 3b 26 44 fa 3c
       0.077408716 -0.035445787 0.0023273 0.030550074
000210 3f 97 f0 bb ed 56 79 bc 2b b0 f6 bc 24 83 37 bc
       -0.0073422487 -0.015218479 -0.0301133 -0.0112007
000220 d4 9b 57 3c 3d ea 0e 3d bc 3c d2 ba 5a 70 2d bd
       0.013159711 0.034891356 -0.0016039829 -0.042343475
000230 73 4e 43 3c d3 58 3d 3b af 9b 96 bc c3 20 11 bb
       0.011920559 0.0028892055 -0.018384783 -0.0022144772
000240 cb 36 e9 3c 8b ca f9 bc 65 0c 70 bd 4b 0c 32 bd
       0.02846851 -0.030492088 -0.05860557 -0.043468755
000250 24 35 70 bc 81 aa c1 bd ab e6 87 bc 5b e1 d4 bd
       -0.014661107 -0.09456349 -0.016589483 -0.10394546
000260 8c 1e 18 bd 3b 14 b9 bd 02 3a b0 bd 9f ac 88 bd
       -0.037138507 -0.09037062 -0.08604814 -0.0667355
000270 95 77 6c bd ae 69 08 be a4 33 8c bd 2d 10 c3 bd
       -0.05773123 -0.13321564 -0.06845787 -0.0952457
000280 5b 96 20 be 73 81 0b be 07 45 27 be 0a f1 22 bd
       -0.15682356 -0.136236 -0.16334926 -0.039780654
000290 27 d9 19 be 89 96 2b be 03 2e 27 bd cf e4 16 bd
       -0.15024243 -0.16756643 -0.040815365 -0.036839303
0002a0 7b 89 2e bd cc dd e5 bd f6 0f bf bd b2 b0 01 be
       -0.04261158 -0.11223945 -0.09329216 -0.1266506
0002b0 c2 35 04 be fc 84 fb bd 64 47 40 3b a2 6d 1c bd
       -0.12911132 -0.12281224 0.0029339427 -0.03819049
0002c0 8b 2b 88 bd 80 e1 54 bc b2 ad d3 bd 10 f8 d2 bc
       -0.0664893 -0.0129932165 -0.10335864 -0.025753051
0002d0 4d 6e 2c 3e bc a8 41 3d a9 82 4b 3d 30 a3 c8 3d
       0.16838951 0.04728006 0.049685154 0.097967505
0002e0 14 cc 98 3d e4 94 48 3d fb 4c 1a 3e ab cb 19 3d
       0.074608 0.04897012 0.15068428 0.03754775
0002f0 50 bb 48 3d 5f b9 ec 3d 41 ad 83 3d b4 2a e8 3c
       0.04900676 0.11558794 0.0642953 0.028340675
000300 6e 1c f5 bb c4 46 c7 3d 31 dd 3a 3c 7c 41 09 3d
       -0.0074801957 0.09730294 0.011405275 0.033509716
000310 1b aa 3a 3d fa 18 97 bc b2 1c e5 3b a1 b6 0b bc
       0.04557238 -0.018444527 0.006991946 -0.008527429
000320 ff a1 8d 3d 9d a2 0a 3d 53 5d 85 3d 67 31 cf bb
       0.06915664 0.033846486 0.06511941 -0.006323028
000330 48 c7 c4 3d 0d 74 e1 3d b7 91 a5 3d 92 f2 42 bd
       0.096083224 0.11008463 0.080844335 -0.047594614
000340 17 89 af bc d3 68 90 bd 1f 93 d1 3c a6 c5 e2 bb
       -0.021427674 -0.07051244 0.025582848 -0.006920534
000350 42 ad bf bd 50 c9 ad bd 7b 69 8f bd 12 8c 05 bc
       -0.09359218 -0.08485663 -0.07002541 -0.008151071
000360 6d ae 9b bd c2 25 1c bd 09 03 af bc de fe 2f 3c
       -0.076016285 -0.038121946 -0.021363752 0.010741917
000370 15 ef b1 bd 49 02 59 bc 60 e9 78 bd ad 84 eb bc
       -0.086881794 -0.013245174 -0.06076944 -0.028749788
000380 35 3f 54 bd 62 d0 41 3b 17 bc 8e bd 79 ea 87 bd
       -0.05181809 0.0029573669 -0.06969469 -0.06636519
000390 70 bf 7d 3d b1 3a 4a bd f6 65 60 bc 15 0c 1c bd
       0.061950147 -0.04937238 -0.013696184 -0.03809746
0003a0 6d 1d 30 3d 59 19 43 bd ab b8 ca 3c ff ac 81 bd
       0.042996813 -0.047631595 0.02474626 -0.063318245
0003b0 71 a4 ed bc 14 31 91 bc f5 69 89 bd c3 0e 64 3d
       -0.029009076 -0.017723598 -0.06709663 0.05567814
0003c0 4e c5 1b 3d 57 0b d3 3c 84 6d e0 3d 63 57 bc 3d
       0.03802996 0.025762243 0.109583884 0.09196355
0003d0 aa e8 f8 bb f9 d8 10 3e 16 f5 0b 3d 3e 5b 06 3e
       -0.007596095 0.14145268 0.03416928 0.13120744
0003e0 68 ca 12 3e 60 63 21 3e aa d7 b9 3d eb 5d 09 3e
       0.14335024 0.15760565 0.09074338 0.13414733
0003f0 00 f9 bf 3d 7e eb 11 3e 1c 1e b7 3d f6 21 d0 3c
       0.09373665 0.1424999 0.0894129 0.025406819

fc1.bias f4 [512]
000000 5c 36 50 bd 8b 5a b6 3d 2e 05 ff bd 84 4e 51 3d
       -0.05083309 0.089039885 -0.1245216 0.05110027
000010 61 44 10 3e c2 88 66 bd 4c 51 8b bd 9c 9b 84 bd
       0.14088584 -0.056282766 -0.068026155 -0.06474993
000020 d9 c3 8d 3c 5f 58 22 bd 91 86 e9 3d 85 84 44 3d
       0.017305302 -0.03963506 0.1140262 0.047977943
000030 38 12 81 bd e1 0b f6 3b 20 07 9b 3c 32 db f8 bd
       -0.06302303 0.0075087403 0.018924296 -0.12151183
000040 d0 95 bb bc a0 86 3e 3d 5c 02 ad bd b1 a6 ee bd
       -0.022898585 0.046515107 -0.08447716 -0.116528876
000050 f0 0f 87 bd ab 5c 26 3e 08 a1 52 3d c8 77 20 bd
       -0.06594837 0.16246288 0.051423103 -0.039176732
000060 dd 12 2e 3d 08 e9 d0 bd d0 7d 1f bd 75 5c 1d bd
       0.04249846 -0.10200697 -0.038938344 -0.038418252
000070 7c 3b 03 3b 52 3f 88 bd c7 79 f8 3d 17 f9 a0 bd
       0.002002447 -0.066527024 0.12132602 -0.0786001
000080 76 7d f6 bd 81 96 3a 3c 16 92 c3 bd 16 35 38 be
       -0.120356485 0.011388422 -0.09549348 -0.17989
000090 fa 3c 10 be ff 64 d8 3d 6c ca 9c 3c b1 04 8f bd
       -0.1408576 0.105661385 0.019139491 -0.06983317
0000a0 14 cd bb 3d 93 82 d7 3d e1 48 46 be 2d b1 89 bd
       0.09169975 0.10522952 -0.19363739 -0.06723247
0000b0 84 62 d4 3c 01 c3 08 3d b0 19 ca bd 1c b1 4d bd
       0.025925882 0.033389095 -0.09868181 -0.050217733
0000c0 cb a6 7d bd 15 0d c2 3c eb 36 b1 ba 87 5b 90 bd
       -0.061926644 0.023687879 -0.0013520395 -0.070487075
0000d0 e4 93 c0 bc f4 f5 27 ba cf 2f 54 bd 28 80 26 bd
       -0.02350802 -0.00064071943 -0.051803406 -0.040649563
0000e0 06 1d 44 bd 76 0c e7 bd a6 5d 4b 3c 0b 51 42 3d
       -0.04787924 -0.112816736 0.012412464 0.04744057
0000f0 f5 81 0d 3e 0d bd 52 bd f4 e7 bd ba e1 d3 d0 3d
       0.13819106 -0.051449824 -0.0014488683 0.10196663
000100 2d 5c cf 3d 65 95 c1 bd 1d be 06 bc 4b 4f 6d 3d
       0.10125003 -0.09452323 -0.0082240375 0.057936948
000110 e2 ae 98 3d a1 ff 6f 3d 8b 39 c9 3d bb b3 c2 3d
       0.07455231 0.058593396 0.098254286 0.09506937
000120 f7 44 22 bd 61 b5 06 be 3e 3d f5 3d 77 8c d2 3c
       -0.03961655 -0.13155128 0.11974572 0.025701744
000130 6d ea 01 3d 2d a0 be bd 4e 76 9c bd 9c e3 c6 3d
       0.031717706 -0.09307895 -0.07639752 0.09711382
000140 48 00 3b 3e 6f 34 77 be fe a2 c3 bd b2 fd 52 bc
       0.18261826 -0.24141096 -0.09552573 -0.0128778685
000150 f8 64 d2 bc 55 84 ea 3d 82 ba a4 3d 14 ae 4e be
       -0.025682911 0.114510216 0.08043386 -0.20183593
000160 e2 e1 87 bd 8a 96 17 be a9 d3 c6 3b a7 da 0d 3b
       -0.066348806 -0.1480352 0.0060677123 0.002164522
000170 5e fb 18 be 97 fc 12 3d bb a9 8c bd 53 4e 70 be
       -0.14939639 0.03588542 -0.06868311 -0.23467378
000180 65 40 85 bd a9 7c 86 3e 3b 0c 25 3d 96 03 21 3e
       -0.06506423 0.26266983 0.040294867 0.15724024
000190 4e c2 31 3c f1 f1 51 bc dd f9 85 3a 0e 47 61 3e
       0.0108495485 -0.012814031 0.001022156 0.21999761
0001a0 5e a5 4a be fb 0e ac 3d 0c 6e 7d bd 5c 00 c9 3c
       -0.19789645 0.08401295 -0.061872527 0.024536304
0001b0 a4 9d 2b 3e 61 b6 3b 3e 79 86 96 bd a6 00 8c 3b
       0.16759354 0.18331291 -0.073498674 0.0042725382
0001c0 27 7b 81 bc e2 a0 f4 bc 28 9b 80 3e fb 87 0a be
       -0.015805794 -0.029861871 0.25118375 -0.13528435
0001d0 57 0c 2f be a4 9b 9f bd 4c 6a 8b 3d 18 ea 9a 3c
       -0.17094551 -0.07793358 0.06807384 0.018910453
0001e0 b1 42 98 bc 67 be 1b be e6 22 84 bd 99 26 b5 bd
       -0.018586488 -0.15209351 -0.06451969 -0.088452525
0001f0 63 e1 70 be df 6c ef bd 6c 42 32 3c 64 f3 4f 3d
       -0.23523478 -0.116906874 0.010880094 0.050769225
000200 d3 40 3a bd af b3 f1 bd e0 c0 b6 bd ef f2 19 3d
       -0.045471977 -0.1180185 -0.08923507 0.037585195
000210 f6 17 30 bd 73 0b c2 bd 9a b2 99 3d e3 71 04 be
       -0.0429916 -0.0947484 0.07504769 -0.1293407
000220 eb 0a 39 bd b2 bf f7 3b aa fe ae bc 4e a6 37 bd
       -0.045176428 0.0075606937 -0.021361668 -0.044836335
000230 dc 28 82 bc b0 de 49 3e c8 29 13 ba a3 ed 2d bb
       -0.015888624 0.19713855 -0.0005613831 -0.0026539348
000240 c4 29 12 3e 32 a3 05 3e e6 2f 87 bd 38 39 91 bd
       0.14273745 0.13050535 -0.06600933 -0.07090992
000250 a3 82 b8 bb 70 91 33 be 3b 64 38 3d b0 d0 66 3d
       -0.0056308075 -0.17535949 0.045017462 0.056351364
000260 0d b3 cb bd 05 36 12 bd 76 45 f6 bc 82 84 f2 3c
       -0.099462606 -0.03569605 -0.030062418 0.0296042
000270 98 d7 8d bd c7 b5 6e 3e 66 c9 c3 3c 11 ad 3d 3e
       -0.06925887 0.2331153 0.023899745 0.18523051
000280 4f 0a 08 be 8b e3 b8 bc 08 f7 59 bd 1f 72 1a bd
       -0.13285182 -0.022569438 -0.053214103 -0.03770649
000290 90 95 fe bd bd fa 0e 3e a4 4e 44 3d 3a d0 0c 3d
       -0.124308705 0.13962837 0.04792656 0.034378268
0002a0 b3 26 30 be 7e 95 9c bc 49 e5 83 be 1d 27 52 bd
       -0.17202263 -0.019114252 -0.25760868 -0.051306833
0002b0 9b aa 28 3c 9c ad 91 3b a0 a2 af 3b f1 cd fa 3c
       0.010294582 0.0044457447 0.0053599626 0.030615779
0002c0 5d 5f 14 bd 55 de 3f bd d9 0c 2e be b0 51 dd 3c
       -0.036223758 -0.04684289 -0.16997088 0.02701649
0002d0 90 91 96 bd c5 24 99 3c be a6 9d bd 04 3c d4 bd
       -0.073519826 0.01869429 -0.07697819 -0.103630096
0002e0 64 cb 2f 3e bc 8f 26 bd f3 d9 e1 bc da be 95 bd
       0.17167431 -0.04066442 -0.027569747 -0.07311793
0002f0 db e7 1c 3d 3b 9f 00 be db 33 a8 bd 5e a8 23 3e
       0.038307052 -0.12560742 -0.08213016 0.15982196
000300 96 85 b2 3c 17 90 8a 3e 25 14 6f be 2c 0d e1 3c
       0.021792214 0.27063057 -0.23347528 0.027472101
000310 b4 dd 97 bd f4 ba ae 3c 71 a3 ed bd 4e ae 38 bd
       -0.074153334 0.02132938 -0.116034396 -0.045088105
000320 e2 7d 84 3d 29 1d ab bd 6c b5 d1 3c 01 f2 2c be
       0.06469323 -0.08355171 0.025599204 -0.16889192
000330 92 81 e9 3d a9 06 82 bd 7a 3b 36 be e3 38 d0 bd
       0.11401667 -0.063489266 -0.17796126 -0.101671
000340 9b 6c 11 bd f4 86 93 3c 02 69 87 bd 26 b5 55 bd
       -0.035503965 0.018008687 -0.066118255 -0.05217471
000350 0c 1c af bb 56 c9 ca 3c 2f 20 8f 3c 47 a6 41 3d
       -0.0053439196 0.024754208 0.017471401 0.047277715
000360 19 09 1c bd f1 f8 d5 bd b2 a5 f1 bd 3b 2d e0 3d
       -0.038094614 -0.104478724 -0.11799182 0.10946127
000370 f2 9d d3 3d 26 76 fb bd da 24 a6 bd e5 ad 0a be
       0.1033286 -0.122783944 -0.08112498 -0.13542898
000380 1e 6a a3 bc 42 86 41 bc 41 7d 9c bc 93 72 26 be
       -0.019948062 -0.011811795 -0.019102694 -0.16254644
000390 84 f8 94 bc f9 20 fe bb 0a db 59 be 28 6d 43 bb
       -0.018184908 -0.0077553955 -0.21274963 -0.00298197
0003a0 87 d0 8c bd 68 69 b6 bc 30 d8 4d ba 30 66 20 3d
       -0.06875711 -0.022267058 -0.0007852344 0.039159954
0003b0 68 5c 9b b8 d9 dd 22 be ef c4 79 3c fe 87 0c bd
       -7.408188e-05 -0.1590494 0.0152447065 -0.03430938
0003c0 43 ec 59 3d fe 49 bb 3d 3a 62 af bc 11 f5 16 be
       0.053203832 0.09144972 -0.021409143 -0.14741923
0003d0 61 c2 12 bc 9f e3 d3 3d b0 80 cc 3d c6 62 ea bc
       -0.008957476 0.1034615 0.09985483 -0.028611552
0003e0 a0 91 3b be af 24 24 bd 2f 6b 5b be 38 b7 0f bd
       -0.1831727 -0.040074047 -0.21427606 -0.03508684
0003f0 a3 1b c3 3d ad f5 de 3d 88 51 ac 3c 5c 36 da bd
       0.09526756 0.10886703 0.02103497 -0.106548995

fc2.weight f4 [2, 512]
000000 85 d6 7e 3c 06 79 cb bd 80 c8 50 3d 63 d6 67 bd
       0.015554075 -0.09935193 0.05097246 -0.05660094
000010 4d 2c 69 bb 47 8e 42 3e ad 69 e6 3d f7 64 f6 ba
       -0.0035579384 0.18999587 0.11250625 -0.00187984
000020 97 ea 54 bf 60 ad 89 3d 92 61 93 bd b4 f4 5d 3d
       -0.83170456 0.06722522 -0.071963444 0.054188445
000030 8e 00 03 3c a6 62 89 be 8e 7f 4e 3c fd c4 8b 3d
       0.007995738 -0.26833075 0.012603654 0.06824682
000040 d0 8f fb bd 62 33 15 be bc a3 9e 3e 1f 79 99 bd
       -0.122832894 -0.14570382 0.30984294 -0.07493805
000050 4f 85 14 3d d4 de 36 3e 56 28 36 be 8f 2b 83 3e
       0.036259945 0.1785844 -0.17788824 0.2561917
000060 e9 96 98 be 8b 87 84 3e 6e 35 7e be fb f1 3b 3e
       -0.29802635 0.2588466 -0.2482507 0.18354027
000070 34 b7 5f 3d 25 4b 70 3d 45 3c 6e be e1 5c a8 bd
       0.054618075 0.058665413 -0.23265179 -0.0822084
000080 ea f7 43 bd 00 18 40 be 85 fe da bd ee 83 dc 3c
       -0.04784385 -0.18759155 -0.10693077 0.026918378
000090 c5 1f 30 be 82 84 5e bd f3 6e 3f be 28 e6 35 3a
       -0.17199619 -0.054325588 -0.18694668 0.0006938898
0000a0 d5 70 84 bb f1 22 b7 bd 1b bc 64 3d d6 7a ab 3b
       -0.004041771 -0.089422114 0.055843454 0.005233149
0000b0 cf 6f 26 3d af e2 40 bd 47 c5 bc be 56 b1 91 be
       0.040633973 -0.047091182 -0.3686926 -0.2845561
0000c0 9a 1a 14 3c 3f 0b 3b bd 83 37 cd be 4b fa 8d 3c
       0.009039545 -0.045665022 -0.40081415 0.017331263
0000d0 99 d9 ab bc 87 2f 33 be 18 2f 0b 3c ff 3e 1b bc
       -0.020977782 -0.17498599 0.008495115 -0.009475469
0000e0 1a 4d a5 3d 14 76 f7 3d 23 31 b2 3c c0 42 06 bd
       0.080713466 0.120830685 0.021751946 -0.0327785
0000f0 a0 b0 08 3f 2d 2a af bc 29 5f 8f bd ef f4 c8 bd
       0.5339451 -0.021382416 -0.07000572 -0.098123424
000100 11 69 3b 3e a6 0c 4d 3e 5a d4 b9 bc 5e 9c 69 3e
       0.18301798 0.20024356 -0.022684265 0.22813556
000110 e9 08 eb ba 60 01 5c bd f3 10 7f 3d 07 53 26 be
       -0.0017931733 -0.05371225 0.062272023 -0.1624261
000120 8d 23 ea bd 0a 31 e3 bb 56 38 c4 bb 2b b4 c1 bd
       -0.11432562 -0.006933336 -0.005988161 -0.094581924
000130 0f 74 70 3c 55 11 ca 3c a3 21 2d be ef a0 9e 3d
       0.014676108 0.024666468 -0.16907363 0.077455394
000140 8c 8d 73 be 4f 85 6e bb ef 9c c6 3b 65 c5 fd bc
       -0.23784465 -0.0036395376 0.0060611884 -0.030977914
000150 85 42 ef 3d e2 3f 19 be 0c 41 d2 bd 9f 46 03 3c
       0.116826095 -0.14965776 -0.10266313 0.008012443
000160 83 e8 ba be 1d bd e1 3a a0 7d 31 be 4d 60 98 3e
       -0.36505517 0.0017222498 -0.17333078 0.29760972
000170 87 9f 18 be f7 56 07 bf c4 17 8f bc 75 93 ab 3a
       -0.14904605 -0.5286707 -0.017467387 0.001309021
000180 3f 92 be bd 2c 3d 84 be 0d e6 13 be 59 4f 0b bc
       -0.09305238 -0.2582792 -0.14443226 -0.008502805
000190 8a 70 dd 3c f3 a0 1f be 89 0c a8 bd de 68 8d bd
       0.027031202 -0.15588741 -0.08205516 -0.069047675
0001a0 0d fe 89 3d a7 29 f3 3d 14 1a 49 be 6f 01 88 3e
       0.067379095 0.11873179 -0.19638854 0.26563594
0001b0 83 08 1f be 7c 3d 85 be df 7e d0 bc 62 87 aa bd
       -0.1553059 -0.2602347 -0.025451122 -0.083266035
0001c0 e5 81 f7 3a 98 25 86 38 16 22 5c bd 21 24 0a bb
       0.0018883316 6.39662e-05 -0.053743444 -0.0021078663
0001d0 6b ea 1c 3d d9 9b b5 3c 4e 94 0a 3e 3c 42 bc bd
       0.038309496 0.02216904 0.13533136 -0.09192321
0001e0 34 e9 e7 bc 19 9b 87 3c 45 e8 16 3c f1 64 98 bd
       -0.028309442 0.016553449 0.009210651 -0.07441128
0001f0 4a 4d b0 3b 6a 4c cc 3c d1 92 43 bc 88 36 9b 3c
       0.0053803073 0.02493878 -0.011936859 0.018946901
000200 d5 da d4 3d 62 60 86 3e 05 f0 a3 3c 65 18 04 3b
       0.103933014 0.2624541 0.020011911 0.0020156142
000210 66 a8 1a 3d 99 49 49 be 02 18 97 be 8e ad e5 ba
       0.037758254 -0.19656982 -0.29510504 -0.0017523037
000220 5b 60 c3 3d 17 36 f8 bc 47 9d 94 bd 46 71 84 3c
       0.09539863 -0.03029923 -0.07256561 0.016167294
000230 32 32 9e 3c b4 78 ac 3e 24 74 11 be ff 74 c5 3c
       0.019311044 0.3368584 -0.1420446 0.02410364
000240 9b 02 e2 bd b4 5e 07 3f b4 3d 0d be ca 29 a0 3b
       -0.11035653 0.5287888 -0.13793069 0.004887794
000250 87 ba 2b be 2e 9f ad bb 23 88 b3 3b e4 16 a8 3c
       -0.16770373 -0.0052985167 0.0054788752 0.020518728
000260 04 1b 81 3d 0c f2 cd 3d dc 1c 2a be c5 2c 86 bb
       0.06303981 0.100559324 -0.16612571 -0.0040946924
000270 b4 ab 15 3b 92 3b e4 bc d1 d2 a0 be 31 15 5f be
       0.0022837939 -0.027860437 -0.3141084 -0.21785428
000280 fd 42 f6 bc e9 ad 81 be 45 02 84 bc 96 4a 4d 3d
       -0.03006124 -0.25327995 -0.016114363 0.05011996
000290 30 ff 3d 3a 8e 6c b5 bd 38 36 26 3e 13 a9 a7 3e
       0.0007247804 -0.08858596 0.1623162 0.3274618
0002a0 c7 d4 47 bb c6 8c 37 be 10 fb 17 3c c9 76 6e 3c
       -0.0030491815 -0.17924795 0.009276167 0.014554688
0002b0 3f d8 02 be 5d 44 66 be 2b aa 68 3d f9 6c 98 3e
       -0.12777804 -0.22487016 0.05680291 0.2977064
0002c0 40 cc 77 be 39 dd d7 be 4b 7b 0f 3e b6 5b 04 3e
       -0.24199009 -0.42160967 0.14011876 0.1292561
0002d0 19 94 bc bd 32 59 7c 3e 0d 91 b5 bc b1 d4 f7 bd
       -0.09207935 0.246434 -0.022163892 -0.121011145
0002e0 20 59 8a bd 50 33 c2 bd fb 6e c1 3c 39 99 16 bd
       -0.067552805 -0.09482443 0.02361249 -0.03676722
0002f0 e6 8e 02 be 87 4f 5f 3e 17 ac af be 1e 6d e6 be
       -0.12749824 0.21807681 -0.34310982 -0.45005125
000300 b2 d7 10 bd cd cd 89 bd 57 de cf ba cf 3b d2 3d
       -0.035361953 -0.067287065 -0.0015859109 0.10265314
000310 2b e1 a2 3b 1f 12 11 be 09 4f 21 3d 2e 37 17 bc
       0.00497069 -0.14167069 0.039382014 -0.009229464
000320 87 cb 4d be f2 af af bb 6d cc 00 be 23 28 1f 3e
       -0.20097171 -0.0053615505 -0.12577982 0.15542655
000330 53 f8 dc 3d 10 34 d5 bc de 9c 45 3d 5c ba 95 bb
       0.107895516 -0.026025802 0.048245303 -0.004569335
000340 1b 2a 34 3e b5 6b 31 3d 1a ec 9e bc bc e0 a2 3d
       0.17594187 0.043315608 -0.019399691 0.07953021
000350 36 2f c4 3d 8a 8d d6 3a 94 ca 6f be bd 70 93 be
       0.09579317 0.0016369086 -0.23417121 -0.2879695
000360 99 e0 54 3e 01 3d 84 3e 8a 88 00 3d 54 64 4c bf
       0.20788802 0.25827792 0.031380214 -0.7984059
000370 32 e4 47 be 8a 2b 39 3e f1 5e 6c be cb f6 16 3d
       -0.19520643 0.18083015 -0.23083092 0.036856454
000380 35 0c d1 3c 82 38 31 3b ec d6 f1 bd 74 f7 84 3d
       0.025518516 0.0027041738 -0.11808571 0.064925104
000390 75 c6 26 3d 00 85 5e be 63 f9 9c 3e e0 2f 9b 3d
       0.040716607 -0.21730423 0.30659017 0.07577491
0003a0 64 7f 42 be a7 73 1e be a2 3f 96 3c 82 27 a7 be
       -0.18993908 -0.15473805 0.01834089 -0.3264733
0003b0 f6 20 a2 be b8 ba 5e 3b ee 92 c9 3c a8 d1 a3 be
       -0.31665772 0.0033985805 0.024606194 -0.31995893
0003c0 80 4e 62 bc b1 65 3e be 57 8f 44 3c 22 6c 72 3d
       -0.013812661 -0.1859348 0.0119970655 0.059185155
0003d0 f1 12 0e bd ac 7a e2 3e 09 bd 9f bd f2 44 fb 3c
       -0.034686033 0.44234216 -0.077997275 0.030672524
0003e0 9a 3c 0e 37 81 a0 82 3d aa 5a 28 3d 66 ab 43 be
       8.4779695e-06 0.0637827 0.04110209 -0.19108352
0003f0 a5 d4 8e be 50 92 89 bd 2b 5c ef bd 2a ec 06 3c
       -0.2789661 -0.0671736 -0.116875015 0.008235017

fc2.bias f4 [2]
000000 f6 78 cc bc ef 89 32 be
       -0.024960022 -0.1743543
